CNN.pt (torch_old, 249562 bytes, 10 tensors)

conv1.weight f4 [6, 3, 5, 5]
0.09135464 0.12351446 -0.008791603 -0.10384958 0.29845867 0.07945323 0.14261328 0.051812597
-0.24027936 0.11774255 0.13124773 0.32106853 0.06851706 -0.23500492 -0.06949588 0.062564574
0.27267453 0.24473259 -0.05032997 -0.046160858 -0.04611896 0.053461112 0.23107998 0.066339366
0.037502572 -0.10590902 -0.044712994 -0.29212517 -0.45656323 -0.095681645 0.09050586 0.056077085
-0.102203526 -0.55667883 -0.30508116 0.11650531 0.14522776 0.015034575 -0.43731752 -0.28087014
-0.1832743 0.17901425 -0.03483285 -0.24845919 -0.3482287 -0.03646883 0.0930693 0.006794622
-0.078708544 -0.092368476 0.07290606 0.026710005 -0.15599754 -0.1963124 0.11429185 0.14691077
0.2369514 -0.08539932 -0.2951104 -0.059843726 0.10923232 0.31799376 0.17807387 -0.22931625
-0.07241008 0.11807697 0.2814872 0.21572807 -0.08926628 -0.037126347 -0.08839983 0.20502466
0.26494366 0.07897054 0.08125161 0.24839507 -0.41168487 -0.025329433 0.078916095 -0.024224646
-0.14175977 -0.67104346 0.24763785 0.40880418 0.009697471 -0.262345 -0.6551015 0.23404075
0.48241925 -0.068527624 0.11322889 -0.2933589 0.04378598 -0.034767926 0.07566794 -0.042590346
-0.006720429 -0.02661247 -0.2981597 0.019000404 0.15037924 -0.45188564 0.06212491 0.12135744
0.014510718 -0.1690769 -0.63141304 0.33380246 0.4631529 0.03264311 -0.13109492 -0.52775514
0.3561405 0.52080303 -0.0015763649 0.014089071 -0.24694099 0.07533728 -0.02428233 0.170472
0.031085271 0.10283876 0.084448114 -0.052479118 0.005898192 0.09517778 -0.37743804 0.10084616
0.16819708 -0.0928449 -0.13877648 -0.60335195 0.22556885 0.5504296 0.04581538 -0.09102051
-0.39504033 0.29741818 0.35375747 -0.04638643 0.065589815 -0.05978864 -0.008358485 -0.03130638
0.124071375 0.12733862 0.08773691 0.15553626 -0.21640556 0.19472238 -0.080103 -0.041101854
-0.04475167 -0.095637724 -0.051973045 -0.08750798 -0.2160875 -0.11874531 -0.19717889 -0.1856537
-0.16175593 -0.16093391 -0.13496485 -0.101227656 -0.1617139 -0.09165402 -0.2555743 -0.1483223
-0.19139497 -0.11773325 -0.006670704 -0.09258975 -0.03981591 -0.11376041 -0.16613248 0.006567563
-0.104256846 0.025320452 0.090567 -0.038149275 -0.14405958 -0.044344835 0.11708479 0.064782366
0.036502566 -0.006626285 -0.07587151 0.0011202226 0.096336566 0.08125966 -0.11851331 0.022931157
0.033710018 0.056871135 0.019935241 -0.03606602 -0.14762218 -0.037772987 0.076340936 -0.07995525
0.06094889 0.26835084 0.21432978 0.29625198 0.05076658 0.064565904 0.23148793 0.20586978
0.20772023 0.28342006 0.017757637 0.11371102 0.23278455 0.34878197 0.10545992 0.06092329
0.08445717 0.16767603 0.25175154 0.23796014 -0.027235268 0.0383496 0.062113896 0.26886687
0.1765726 -0.030350978 0.019258853 0.0643403 0.013599162 0.017678937 0.13828366 0.1203768
0.20880775 0.18153879 0.11244875 0.19251369 0.048184905 0.10727741 -0.016389534 0.003955829
0.048925295 0.16835505 0.0870123 0.11324397 0.023363467 0.0035557437 -0.004444888 0.09576754
-0.047810003 0.06387543 -0.16910832 -0.06297473 0.09374749 0.099253364 0.05825317 0.0008533427
00000000: 2418 bb3d 26f5 fc3d a80a 10bc 17af d4bd
00000010: 93cf 983e 60b8 a23d 3709 123e 7239 543d
00000020: cb0b 76be 0223 f13d ce65 063e 1863 a43e
00000030: ac52 8c3d 21a5 70be db53 8ebd db21 803d
00000040: ff9b 8b3e 2e9b 7a3e cc26 4ebd 2b13 3dbd
00000050: 3ce7 3cbd 0afa 5a3d 3ba0 6c3e efdc 873d
00000060: 4c9c 193d d4e6 d8bd f924 37bd 6e91 95be
00000070: a8c2 e9be bdf4 c3bd 235b b93d 16b1 653d
00000080: 1550 d1bd 8182 0ebf 9933 9cbe 569a ee3d
00000090: 96b6 143e 9453 763c 15e8 dfbe 36ce 8fbe
000000a0: 42ac 3bbe 834f 373e e4ac 0ebd 166c 7ebe
000000b0: 084b b2be 5760 15bd 1e9b be3d 6ca5 de3b
000000c0: f231 a1bd af2b bdbd c64f 953d f1ce da3c
000000d0: d2bd 1fbe 1e06 49be d811 ea3d c76f 163e
000000e0: 63a3 723e d7e5 aebd b618 97be b21e 75bd
000000f0: 32b5 df3d 14d0 a23e ff58 363e e1d1 6abe
00000100: bc4b 94bd 57d2 f13d 171f 903e d2e7 5c3e
00000110: 3dd1 b6bd cc11 18bd f80a b5bd fcf1 513e
00000120: b2a6 873e 4ebb a13d 3e67 a63d 475b 7e3e
00000130: 5cc8 d2be ac7f cfbc c39e a13d c472 c6bc
00000140: 7929 11be 81c9 2bbf c794 7d3e c84e d13e
00000150: 24e2 1e3c 1552 86be bbb4 27bf 61a8 6f3e
00000160: a8ff f63e 3658 8cbd 8ce4 e73d 2333 96be
00000170: ee58 333d d068 0ebd cbf7 9a3d 3773 2ebd
00000180: 0b37 dcbb 6502 dabc 63a8 98be bca6 9b3c
00000190: 04fd 193e 8e5d e7be b176 7e3d 408a f83d
000001a0: 5dbe 6d3c 7f22 2dbe 49a4 21bf 28e8 aa3e
000001b0: 6022 ed3e c8b4 053d bf3d 06be f61a 07bf
000001c0: 0c58 b63e 5953 053f 079e ceba d9d5 663c
000001d0: 19de 7cbe 6f4a 9a3d bdeb c6bc 3690 2e3e
000001e0: 8aa6 fe3c 219d d23d 22f3 ac3d 58f4 56bd
000001f0: 9f45 c13b 91ec c23d 8f3f c1be 6e88 ce3d
00000200: db3b 2c3e 7825 bebd 6c1b 0ebe 4675 1abf
00000210: 85fb 663e f4e8 0c3f e8a8 3b3d f668 babd
00000220: ba42 cabe 3247 983e b31f b53e b2ff 3dbd
00000230: f453 863d efe4 74bd 07f2 08bc 1e3b 00bd
00000240: 2219 fe3d 0e65 023e 69af b33d e644 1f3e
00000250: 6b99 5dbe 4e65 473e 0b0d a4bd 6b5a 28bd
00000260: 874d 37bd b6dd c3bd b0e1 54bd 6237 b3bd
00000270: 0b46 5dbe be30 f3bd 43e9 49be 011c 3ebe
00000280: 59a3 25be dccb 24be 3a34 0abe 7250 cfbd
00000290: 5498 25be 1ab5 bbbd a2da 82be cde1 17be
000002a0: 0bfd 43be 211e f1bd ec95 dabb b29f bdbd
000002b0: 0216 23bd 38fb e8bd a21e 2abe b634 d73b
000002c0: 9d84 d5bd d66c cf3c 317b b93d 6a42 1cbd
000002d0: 5b84 13be eea2 35bd 26ca ef3d 9eac 843d
000002e0: b783 153d 4f21 d9bb 8662 9bbd 6fd4 923a
000002f0: 1b4c c53d 776b a63d 1bb7 f2bd 1fda bb3c
00000300: 8413 0a3d b5f1 683d 3b4f a33c f7b9 13bd
00000310: 452a 17be d9b7 1abd a358 9c3d 94bf a3bd
00000320: 8ba5 793d 4865 893e 4479 5b3e 57ae 973e
00000330: 9ef0 4f3d 213b 843d 2c0b 6d3e 87cf 523e
00000340: 9db4 543e 6f1c 913e 7778 913c 53e1 e83d
00000350: 135f 6e3e 8d93 b23e 5ffb d73d b38a 793d
00000360: e1f7 ac3d 44b3 2b3e 94e5 803e d3ab 733e
00000370: 7f1c dfbc 7814 1d3d 246b 7e3d eba8 893e
00000380: 73cf 343e 9da2 f8bc bec4 9d3c d9c4 833d
00000390: 05cf 5e3c 6bd3 903c 3b9a 0d3e 1d88 f63d
000003a0: b3d1 553e 4ee5 393e 884b e63d 4f22 453e
000003b0: 895d 453d 42b4 db3d 5843 86bc e69f 813b
000003c0: e465 483d 4465 2c3e 8133 b23d 74ec e73d
000003d0: be64 bf3c 7b07 693b 6ca6 91bb c621 c43d
000003e0: 6cd4 43bd 1fd1 823d bb2a 2dbe e5f8 80bd
000003f0: affe bf3d 5945 cb3d e09a 6e3d dcb2 5f3a

conv1.bias f4 [6]
0.062171586 0.44134295 0.8183503 0.6619625 -0.15485401 0.4719689
00000000: a2a7 7e3d b4f7 e13e 687f 513f 6076 293f
00000010: 0d92 1ebe e8a5 f13e

conv2.weight f4 [16, 6, 5, 5]
-0.015819358 0.11455183 0.18362682 0.08462799 -0.061620485 -0.13967706 -0.00708485 0.15668426
0.059070557 -0.027162634 -0.051532235 0.03451942 0.053966295 -0.009825873 0.007784563 -0.09652308
-0.04123881 -0.025484215 0.13624953 0.07467163 -0.034737397 0.049854785 -0.06635578 0.076895826
-0.013727575 -0.15002836 -0.025498612 0.103474915 0.2836934 0.144386 -0.16726688 0.005826847
0.19328813 0.19373374 0.07315932 -0.08000929 -0.0053752265 0.1403264 0.15276095 0.12440719
0.008295977 0.08359928 0.1588217 0.14086664 0.19771485 -0.027667737 0.115464285 0.21312858
0.21159936 0.2503527 0.0055093006 -0.0638685 -0.11187382 -0.14270592 -0.014414554 0.12750332
0.04139264 -0.036822103 -0.13766862 -0.037436254 0.17811617 0.052190345 -0.09203007 -0.16263036
-0.11642816 0.08890468 0.014106868 -0.0901006 -0.08085194 -0.09812262 -0.029788213 0.006659893
-0.08227114 -0.15829405 -0.21179873 0.13469319 -0.040464774 -0.047764055 -0.0799953 -0.100944705
0.09002123 0.033156857 -0.011157799 -0.00028122822 -0.10203552 0.121739104 -0.010604456 0.007108093
-0.08096937 -0.06515771 0.13758416 -0.028447602 0.0045494405 -0.14646092 -0.15265813 0.2769575
0.016970988 0.021458503 -0.013503823 -0.044153847 -0.13768297 -0.021028137 -0.11389772 -0.028739482
-0.033889342 -0.10829186 -0.13171051 -0.15237398 -0.0420522 -0.04282321 -0.021951055 -0.045753278
-0.20234908 -0.07533327 -0.074763745 -0.14009997 -0.03336834 -0.08537704 0.006596201 -0.012603882
-0.02463856 0.060288392 -0.031428684 0.092397004 -0.05122989 0.053982783 -0.05666093 -0.19910781
-0.11926251 -0.06093222 0.11643299 -0.007982116 -0.0954608 -0.17768334 0.039638583 0.093296714
0.05344749 -0.0956516 -0.09714231 -0.07634016 0.13018577 -0.018059902 -0.05859914 -0.069210626
-0.054812174 -0.031115199 0.0127204275 -0.117555544 -0.062460896 -0.10771656 0.043930143 0.18474774
0.18258624 0.09856529 0.047865473 -0.08331547 -0.012168967 0.12847166 0.14224087 0.04609859
-0.11975821 -0.064060405 0.16978712 0.17636502 -0.019687869 -0.063168794 0.048085622 0.20092544
0.06650286 0.108119905 -0.17405833 0.061999124 0.13344213 0.112256356 0.0689655 0.042555846
0.037696686 -0.14471298 -0.17166719 -0.0864235 -0.0059046787 0.104186974 -0.04149421 -0.04867297
-0.050084222 0.06471696 0.091268346 -0.07091155 -0.13754745 -0.14204884 0.11925862 0.19154516
0.060610022 -0.17416039 -0.084256195 0.015295503 0.17447612 0.05752036 -0.025368948 -0.1678816
0.083729 0.1118861 -0.12878908 -0.18726705 -0.15965283 0.13990737 0.2079092 0.015050612
-0.15887198 -0.2994096 0.2630248 0.20232885 0.11798726 -0.12192037 -0.26630548 0.2840833
0.11009772 0.08997134 -0.19175994 -0.31471717 0.2760525 0.18577002 0.094239585 -0.0897882
-0.17349751 0.04146627 0.061211888 -0.0009940129 0.022254366 -0.051962055 0.04098214 0.11354556
0.08453793 0.044994503 -0.09067031 0.02449885 0.10633109 -0.014029533 -0.033393554 -0.06427244
0.097968206 0.035932444 -0.015483523 0.00899713 -0.08216842 -0.053596128 0.049179915 -0.122975744
-0.13901266 -0.060527075 0.12814485 -0.059195776 -0.14041534 -0.13381647 -0.018415382 0.032930456
00000000: 9997 81bc 269a ea3d ab08 3c3e 7151 ad3d
00000010: c365 7cbd 8107 0fbe 0828 e8bb d771 203e
00000020: f8f3 713d 2c84 debc 7713 53bd 3c64 0d3d
00000030: c30b 5d3d b3fc 20bc a615 ff3b e4ad c5bd
00000040: 07ea 28bd 46c4 d0bc ff84 0b3e 71ed 983d
00000050: cd48 0ebd 8834 4c3d 8ae5 87bd 8f7b 9d3d
00000060: 9fe9 60bc 09a1 19be 77e2 d0bc a8ea d33d
00000070: 4340 913e ecd9 133e 0248 2bbe 23ef be3b
00000080: 53ed 453e 2362 463e 8ed4 953d e9db a3bd
00000090: ab22 b0bb b9b1 0f3e 5e6d 1c3e 32c9 fe3d
000000a0: d9eb 073c 1936 ab3d 28a2 223e 583f 103e
000000b0: c375 4a3e 73a7 e2bc 8a78 ec3d 613e 5a3e
000000c0: 81ad 583e 3b2e 803e 5d87 b43b 7dcd 82bd
000000d0: 1a1e e5bd 8021 12be 062b 6cbc 3b90 023e
000000e0: 548b 293d c6d2 16bd 01f9 0cbe c256 19bd
000000f0: 1664 363e 8bc5 553d 437a bcbd 9388 26be
00000100: e371 eebd a813 b63d 7e20 673c aa86 b8bd
00000110: b495 a5bd 83f4 c8bd 6906 f4bc 3b3b da3b
00000120: c57d a8bd d617 22be c4e1 58be 03ed 093e
00000130: 64be 25bd 3ea4 43bd 93d4 a3bd 19bc cebd
00000140: 0d5d b83d 7ccf 073d 33cf 36bc d071 93b9
00000150: 00f8 d0bd 5a52 f93d 50be 2dbc 01eb e83b
00000160: 45d3 a5bd 6871 85bd dde2 0c3e f20a e9bc
00000170: 7913 953b daf9 15be 6a52 1cbe 60cd 8d3e
00000180: be06 8b3c bec9 af3c 243f 5dbc aada 34bd
00000190: c4fc 0cbe 3343 acbc 3543 e9bd 106f ebbc
000001a0: 8dcf 0abd 1fc8 ddbd 1fdf 06be ed07 1cbe
000001b0: ed3e 2cbd 6467 2fbd b3d2 b3bc ca67 3bbd
000001c0: 9934 4fbe 5448 9abd bc1d 99bd 5e76 0fbe
000001d0: 3ead 08bd 28da aebd f224 d83b 8380 4ebc
000001e0: ced6 c9bc f6f0 763d 5dbb 00bd a43a bd3d
000001f0: 6fd6 51bd 0d1d 5d3d 4b15 68bd ebe2 4bbe
00000200: e73f f4bd 1094 79bd 6b74 ee3d 6cc7 02bc
00000210: f480 c3bd 9ff2 35be 115c 223d 5912 bf3d
00000220: c1eb 5a3d fce4 c3bd 8cf2 c6bd 3b58 9cbd
00000230: 6b4f 053e 5cf2 93bc a705 70bd 4dbe 8dbd
00000240: bb82 60bd 4de5 febc 5769 503c f6c0 f0bd
00000250: ffd6 7fbd 809a dcbd 18f0 333d 832e 3d3e
00000260: e3f7 3a3e 99dc c93d 960e 443d 4da1 aabd
00000270: 5960 47bc 138e 033e 97a7 113e e0d1 3c3d
00000280: cb43 f5bd 1a32 83bd addc 2d3e 0899 343e
00000290: 7448 a1bc a45e 81bd 6ef5 443d 66bf 4d3e
000002a0: a732 883d f86d dd3d 593c 32be cbf2 7d3d
000002b0: 0ea5 083e a9e6 e53d c93d 8d3d 0a4f 2e3d
000002c0: d767 1a3d a42f 14be 86c9 2fbe cefe b0bd
000002d0: 097c c1bb fb5f d53d d5f5 29bd 4f5d 47bd
000002e0: 1d25 4dbd 538a 843d e6ea ba3d 133a 91bd
000002f0: 3dd9 0cbe 4075 11be dd3d f43d 6a24 443e
00000300: 3742 783d 1a57 32be 838e acbd fd99 7a3c
00000310: dea9 323e 789a 6b3d 8ad2 cfbc 27e9 2bbe
00000320: 1c7a ab3d 8a24 e53d 49e1 03be efc2 3fbe
00000330: 087c 23be e143 0f3e 26e6 543e d896 763c
00000340: 56af 22be 374c 99be 30ab 863e 4b2f 4f3e
00000350: 4ea3 f13d 63b1 f9bd 3159 88be 5e73 913e
00000360: ea7a e13d e542 b83d b85c 44be 9c22 a1be
00000370: c156 8d3e 7f3a 3e3e af00 c13d e0e2 b7bd
00000380: 55a9 31be 89d8 293d 51b9 7a3d 8a49 82ba
00000390: ca4e b63c 2ad6 54bd e3dc 273d 938a e83d
000003a0: 3922 ad3d 284c 383d 5bb1 b9bd d0b1 c83c
000003b0: 1dc4 d93d 20dc 65bc aec7 08bd 45a1 83bd
000003c0: 8ea3 c83d e62d 133d 9aae 7dbc b368 133c
000003d0: eb47 a8bd 9d87 5bbd e170 493d b5da fbbd
000003e0: 5659 0ebe 3deb 77bd 6738 033e 4577 72bd
000003f0: 0ac9 0fbe 2f07 09be dbdb 96bc 16e2 063d

conv2.bias f4 [16]
0.8050862 -0.15331818 -0.052640896 -0.13960952 -0.33847898 -0.0629993 -0.12271748 0.21475263
-0.47990546 -0.0743515 -0.13172232 -0.17989478 -0.57560325 0.25428137 0.047224704 -0.047356445
00000000: 211a 4e3f 71ff 1cbe fb9d 57bd ccf5 0ebe
00000010: 1e4d adbe c705 81bd 4d53 fbbd 1de8 5b3e
00000020: 2bb6 f5be 9945 98bd 37e2 06be 5636 38be
00000030: bc5a 13bf 2b31 823e b16e 413d d5f8 41bd

fc1.weight f4 [120, 400]
-0.036043897 0.03509641 -0.05321665 -0.026563317 0.0077573685 0.029114138 0.03185085 -0.0073211384
-0.02686686 -0.0013911169 0.039671928 0.007972642 -0.046558443 0.056121785 0.016812632 0.0015148927
0.01234126 0.01914123 0.03132758 0.029899273 -0.033166464 -0.009554848 0.021819975 0.010683924
0.0014443431 -0.03439141 0.012849571 0.010252097 0.009623771 -0.05030086 0.012192249 -0.022512473
-0.03842823 -0.02859077 -0.054678608 0.078536026 -0.038693484 0.04090526 -0.03322576 0.014207307
0.064315975 0.028482396 -0.009012337 0.06445979 -0.06018393 0.011032062 -0.018001372 0.015680945
-0.033056635 -0.06408807 -0.04321632 -0.06613483 -0.0054596406 -0.06134757 -0.015400904 0.04081478
0.025108878 -0.02529507 -0.05018094 -0.019464146 0.038808357 0.06543745 -0.023433216 -0.04653494
-0.0006100159 -0.021366844 0.053842176 0.118625954 0.096335165 0.045038026 -0.06265672 -0.04652866
0.046274323 0.03287203 0.07535961 -0.0064415545 -0.034916688 0.009123104 -0.017931271 0.0038476023
0.010906392 -0.05179205 -0.019680286 -0.04003513 -0.05566867 0.030757457 -0.021799635 -0.015213449
-0.025935898 -0.011639495 0.113778494 0.08547306 0.06192775 0.01602245 -0.015756492 0.051007207
0.063911386 -0.0030520025 0.0030719526 -0.061469648 0.028819337 -0.007830819 -0.044672266 -0.0152066555
0.01691662 -0.022121375 -0.0024548348 -0.0012163172 -0.035233278 0.056517206 -0.073395684 -0.0011492944
-0.011137441 0.004135235 0.007439879 -0.034193754 0.0028562525 0.0143250935 0.047700245 0.00096447265
-0.046917778 0.00789186 0.017585998 0.0070053553 -0.011165609 -0.03458732 -0.04290026 0.039206494
0.02015073 0.0018579739 -0.010885978 0.0006343985 -0.024877664 -0.029550316 0.040127475 -0.023544952
0.035497002 0.046824824 -0.029331071 0.02407303 0.045558512 0.025466442 -0.012409786 -0.04071638
0.03622906 -0.015575281 -0.014416432 -0.004476755 -0.0008980274 0.036817484 -0.015357625 -0.04230464
0.016645147 -0.06764029 -0.073033944 0.03570008 -0.014840396 -0.012468289 -0.054191735 -0.034091797
-0.049791183 0.0017974274 0.052649435 0.052516315 -0.0059950566 -0.0709406 -0.018471401 -0.026218293
0.04424217 -0.0015806418 -0.020687597 -0.02484527 -0.010483468 0.019278808 -0.0017942626 0.037202228
0.078915864 0.02758777 -0.004611074 -0.024084598 -0.014190559 0.022718754 0.023681598 -0.0075990567
-0.018630773 0.050821416 -0.046700504 -0.033973534 0.023272298 0.077864416 0.06938808 0.043499187
-0.047037084 0.0151367 0.008951423 0.038051523 -0.05590795 -0.05751625 -0.014839422 -0.005144486
-0.04807152 -0.015936702 0.032850582 -0.005578571 -0.052572366 -0.06051149 -0.035492837 -0.03976665
0.033899687 -0.034855843 -0.034870215 -0.03559837 0.02334207 0.018905807 0.015970713 -0.040695146
-0.008356977 -0.021434113 0.033973712 -0.034222625 0.010246763 0.003192188 -0.036586415 0.10279819
-0.049602762 -0.08254857 -0.011084361 -0.04850633 -0.057264097 0.019373406 -0.06627263 0.011333206
-0.058151253 0.024774183 0.041753218 -0.09324259 -0.027523318 0.048068423 0.067996666 0.048559427
0.024014922 0.008656608 -0.020532895 0.05010638 -0.027596252 -0.01028267 0.008740298 0.0047979844
-0.0004337978 -0.057520922 -0.03429522 -0.029605739 0.032282118 0.010205514 -0.011373159 -0.0014495786
00000000: c4a2 13bd 41c1 0f3d b4f9 59bd 509b d9bc
00000010: 8631 fe3b c680 ee3c 0976 023d 29e6 efbb
00000020: e417 dcbc 2356 b6ba 087f 223d af9f 023c
00000030: 11b4 3ebd f5df 653d a5ba 893c 5d8f c63a
00000040: ff32 4a3c 12ce 9c3c 5951 003d 52ef f43c
00000050: 8fd9 07bd f08b 1cbc cebf b23c a00b 2f3c
00000060: 1d50 bd3a 02de 0cbd 0287 523c 69f8 273c
00000070: 05ad 1d3c 4608 4ebd 00c2 473c 146c b8bc
00000080: eb66 1dbd 3137 eabc adf6 5fbd 7fd7 a03d
00000090: 0f7d 1ebd 468c 273d bc17 08bd c4c5 683c
000000a0: 18b8 833d ea53 e93c 7ba8 13bc 7f03 843d
000000b0: 6d83 76bd d2bf 343c 9d77 93bc 5375 803c
000000c0: 6566 07bd 9b40 83bd 9903 31bd b371 87bd
000000d0: c9e6 b2bb 9747 7bbd 1354 7cbc 662d 273d
000000e0: 22b1 cd3c 9b37 cfbc 888a 4dbd 4673 9fbc
000000f0: 83f5 1e3d 1204 863d 04f7 bfbc 6c9b 3ebd
00000100: 79e9 1fba 8509 afbc 9d89 5c3d 2af2 f23d
00000110: 5f4b c53d cb79 383d 2b52 80bd d694 3ebd
00000120: 258a 3d3d d2a4 063d 2456 9a3d ad13 d3bb
00000130: cd04 0fbd 1279 153c 9ae4 92bc 0e28 7c3b
00000140: b9b0 323c e723 54bd 8d38 a1bc e0fb 23bd
00000150: d504 64bd 10f7 fb3c 2695 b2bc d441 79bc
00000160: 8577 d4bc 95b3 3ebc b304 e93d 800c af3d
00000170: f4a7 7d3d 8341 833c c213 81bc efec 503d
00000180: f9e3 823d 1b04 48bb d052 493b 99c7 7bbd
00000190: 8816 ec3c d64c 00bc 44fa 36bd 5625 79bc
000001a0: b994 8a3c e337 b5bc 4be1 20bb d56c 9fba
000001b0: c550 10bd 967e 673d 7a50 96bd eca3 96ba
000001c0: d079 36bc de80 873b 3aca f33b c00e 0cbd
000001d0: f72f 3b3b ccb3 6a3c 5561 433d aad4 7c3a
000001e0: db2c 40bd dc4c 013c 8310 903c 2e8d e53b
000001f0: f5ef 36bc 6fab 0dbd 2fb8 2fbd fd96 203d
00000200: 2513 a53c 4287 f33a 1a5b 32bc c34d 263a
00000210: 3ecc cbbc 8113 f2bc b55c 243d 58e1 c0bc
00000220: 4e65 113d 63cb 3f3d b747 f0bc ce34 c53c
00000230: 909b 3a3d 009f d03c 6a52 4bbc 38c6 26bd
00000240: ec64 143d 772f 7fbc e632 6cbc beb1 92bb
00000250: 9969 6bba eecd 163d 8c9e 7bbc a147 2dbd
00000260: 675b 883c fe86 8abd d292 95bd 3f3a 123d
00000270: 2225 73bc cb47 4cbc 27f8 5dbd d7a3 0bbd
00000280: d7f1 4bbd a897 eb3a efa6 573d 591b 573d
00000290: 2e72 c4bb 4e49 91bd 5651 97bc bfc7 d6bc
000002a0: 4737 353d 8a2d cfba 0979 a9bc 4f88 cbbc
000002b0: dac2 2bbc 97ee 9d3c 762d ebba 5d61 183d
000002c0: a49e a13d bfff e13c 7e18 97bb 104d c5bc
000002d0: 857f 68bc ae1c ba3c e9ff c13c 8201 f9bb
000002e0: 909f 98bc 1e2a 503d 0749 3fbd d527 0bbd
000002f0: 8ca5 be3c 6177 9f3d 561b 8e3d 342c 323d
00000300: f5a9 40bd ecff 773c fda8 123c eadb 1b3d
00000310: bcff 64bd 2996 6bbd 0c21 73bc 1493 a8bb
00000320: a4e6 44bd b08d 82bc 558e 063d 72cc b6bb
00000330: 1f56 57bd e5da 77bd f060 11bd 5be2 22bd
00000340: 66da 0a3d 00c5 0ebd 12d4 0ebd 99cf 11bd
00000350: de37 bf3c 5ae0 9a3c 03d5 823c f4af 26bd
00000360: b4eb 08bc 9896 afbc 0528 0b3d 062d 0cbd
00000370: 0ae2 273c 0734 513b a3db 15bd dc87 d23d
00000380: 442c 4bbd 3a0f a9bd 2e9b 35bc 93ae 46bd
00000390: c28d 6abd fab4 9e3c f2b9 87bd e9ae 393c
000003a0: 0230 6ebd 3af3 ca3c 6c05 2b3d f9f5 bebd
000003b0: 9578 e1bc 65e3 443d d641 8b3d 40e6 463d
000003c0: f1ba c43c 72d4 0d3c 9a34 a8bc 593c 4d3d
000003d0: 8911 e2bc a578 28bc 7833 0f3c 6938 9d3b
000003e0: 5b6f e3b9 0f9b 6bbd 2579 0cbd bc87 f2bc
000003f0: 413a 043d 0735 273c 7c56 3abc c9ff bdba

fc1.bias f4 [120]
0.062788114 -0.1363087 0.02595514 -0.090585746 0.09035793 0.0195769 0.015290288 0.012512864
-0.017713297 0.015304193 0.07116871 -0.054311715 0.027150262 0.03471392 0.17254278 0.12711227
-0.09757145 0.08966054 -0.035701893 -0.10005164 0.007963341 0.021421362 0.07995225 0.12563308
0.02944675 -0.0017150717 0.02692772 0.011900031 -0.0343622 0.09702165 -0.13869841 -0.09742124
-0.06772947 0.02998632 0.16236791 -0.030515745 -0.049792238 0.061149124 0.020760272 0.1240393
0.1115067 0.03140731 -0.0191192 0.16293786 0.031382196 -0.046640705 0.03174018 -0.027078375
-0.044879857 0.042138714 0.0048687933 0.03245678 -0.016280096 -0.082370095 -0.1287336 -0.041074418
-0.0054088146 0.0068797437 0.03232372 0.002960065 0.03122118 0.07263769 0.037906952 -0.035889387
-0.03555491 0.1293811 -0.023995273 -0.05716631 0.02642754 -0.0013677417 0.008057397 -0.037983976
-0.03165679 0.030140061 0.012250039 0.023583468 0.030197198 0.14833689 -0.039828103 -0.013425086
-0.03414552 0.034407444 0.043820355 -0.0038215402 0.02773137 -0.09754699 0.024030587 -0.06058997
0.0015536449 0.12258632 -0.04809436 -0.02272125 0.0470364 0.037655078 -0.012455911 -0.010195824
0.046527293 -0.090214714 -0.01768558 -0.008593633 -0.084752545 -0.009315354 -0.03249825 0.029377447
0.016066084 0.13731498 -0.04437275 -0.044695344 0.010802764 0.017969405 0.06702962 0.10915819
-0.06531737 -0.052560527 -0.0056661917 0.022112029 -0.039141256 -0.036362313 0.123648874 0.021932976
00000000: 0e97 803d 8294 0bbe e09f d43c 0585 b9bd
00000010: 940d b93d bc5f a03c 1e84 7a3c c102 4d3c
00000020: 7a1b 91bc 70be 7a3c e7c0 913d f675 5ebd
00000030: 3a6a de3c 2f30 0e3d 0eaf 303e b829 023e
00000040: 8ad3 c7bd f29f b73d 263c 12bd e0e7 ccbd
00000050: ac78 023c da7b af3c 01be a33d f5a5 003e
00000060: 503a f13c 42cc e0ba 8697 dc3c 59f8 423c
00000070: 61bf 0cbd 49b3 c63d f506 0ebe c984 c7bd
00000080: c0b5 8abd dfa5 f53c c643 263e 28fc f9bc
00000090: f2f2 4bbd 8177 7a3d 7211 aa3c 5108 fe3d
000000a0: a05d e43d f4a4 003d de9f 9cbc 2fd9 263e
000000b0: 9e8a 003d 530a 3fbd fe01 023d 78d3 ddbc
000000c0: f1d3 37bd a599 2c3d 668a 9f3b 67f1 043d
000000d0: d65d 85bc a7b1 a8bd bed2 03be a63d 28bd
000000e0: 6d3c b1bb 796f e13b e165 043d a6fd 413b
000000f0: 8fc3 ff3c 12c3 943d 5244 1b3d c000 13bd
00000100: 06a2 11bd 7b7c 043e bc91 c4bc 3827 6abd
00000110: 927e d83c cc45 b3ba 2c03 043c 1695 1bbd
00000120: 8daa 01bd 4ae8 f63c 63b4 483c 1e32 c13c
00000130: 1d60 f73c a0e5 173e cb22 23bd e4f4 5bbc
00000140: 2cdc 0bbd d2ee 0c3d f97c 333d ce72 7abb
00000150: e62c e33c b7c6 c7bd cbdb c43c 302d 78bd
00000160: aca3 cb3a 890e fb3d 97fe 44bd ea21 babc
00000170: 3da9 403d 363c 1a3d e113 4cbc 630c 27bc
00000180: 6793 3e3d 7ec2 b8bd 59e1 90bc 4fcc 0cbc
00000190: be92 adbd 6d9f 18bc e31c 05bd f9a8 f03c
000001a0: 059d 833c 4c9c 0c3e 33c0 35bd 7712 37bd
000001b0: 14fe 303c 9334 933c d346 893d 548e df3d
000001c0: 1dc5 85bd b549 57bd 76ab b9bb 4924 b53c
000001d0: 9552 20bd a6f0 14bd 9f3b fd3d c9ac b33c

fc2.weight f4 [84, 120]
-0.07146755 -0.048461173 -0.14002152 0.155561 0.012668071 -0.034940276 -0.04923929 0.049270324
-0.0020651345 0.14164723 0.003909804 -0.0060102185 -0.026946407 0.036527555 0.05093283 0.010344056
0.009985804 0.034372777 0.06739611 0.15137099 0.03271991 0.053715307 -0.1504112 -0.1691694
-0.034642477 -0.013135919 -0.07870063 0.13685088 0.024188561 0.09894744 0.123924345 0.10412364
0.08273417 0.043617133 0.19623318 -0.062488258 -0.027453452 0.15184966 -0.03744913 -0.0020856285
0.1335093 0.01386389 0.054222267 -0.060656607 -0.016391821 0.09752135 0.041575994 -0.013821759
-0.0424484 0.08235456 -0.0753082 0.03590325 0.10471309 -0.074786656 -0.01432757 -0.14244218
0.17560306 0.01933142 -0.06257544 -0.08955606 0.0060413205 -0.06905266 -0.083457164 -0.015473724
0.04901345 -0.13248697 0.026336199 0.067366205 -0.041516878 0.202179 -0.044626992 -0.08571924
0.108030275 -0.039726038 0.06611634 -0.023769561 -0.020486774 0.008988991 0.13119765 0.028415544
-0.029450659 0.1075996 0.051007483 0.0969778 -0.13315444 0.08973532 0.042952556 -0.02396859
0.16624384 -0.06651973 -0.0854356 -0.08345178 -0.002458734 -0.064415745 0.006407625 -0.13334768
-0.008887604 -0.010023024 -0.026390722 0.076438986 -0.012368363 -0.09818117 0.06669757 0.13775027
-0.02350735 -0.027347129 0.015554749 0.05911541 -0.14275034 0.06651977 -0.09019248 -0.09780876
0.09919017 -0.00054260006 0.03808352 0.100215286 -0.033937972 0.01750162 -0.03455944 0.05067947
-0.09107298 0.10675161 0.0883556 -0.05485832 0.010471815 0.10545042 0.08234663 -0.09989858
0.07822937 -0.08879008 0.0025143167 -0.05084089 -0.027582934 -0.059147786 0.022451857 -0.014064309
-0.011222467 -0.015466813 -0.08805884 0.08809311 -0.035222124 0.005408036 -0.022356076 0.08447922
-0.14269869 0.009553509 -0.047931705 0.05959889 -0.010634733 0.039790176 0.117225334 -0.10865557
0.07860673 0.018123426 -0.095858954 -0.0019609802 -0.08027202 -0.03144717 -0.070751175 0.15897754
0.0640084 0.013303711 0.061070144 0.0597462 0.11808304 0.021712046 -0.0019000381 -0.08475053
-0.14931971 -0.023191899 0.048242103 -0.010803327 0.014406991 0.0044125775 0.12297716 -0.099960394
0.08392351 -0.07302013 -0.062063966 -0.09899699 -0.06856891 0.07510062 -0.0329522 -0.1215519
-0.004205004 -0.05286641 0.0710672 -0.10583085 0.04981695 -0.03359163 0.023234017 -0.029618543
0.06766737 0.006019082 0.033544153 -0.15083459 0.07903454 0.01197265 0.017309194 0.05674561
-0.08809879 0.05883334 0.070208445 -0.06712911 -0.064492606 -0.059051637 0.05388621 -0.02649693
0.048321545 0.0228951 0.12591207 -0.049776517 -0.12790357 0.051145457 0.09485355 0.05628527
0.094382904 0.110040575 -0.006537006 0.0238299 -0.029434178 -0.14887649 0.03420476 0.0012015798
-0.068555616 0.040726244 0.042086776 0.093953885 0.04578705 -0.07680792 -0.054904092 0.057573333
-0.042005084 0.029359536 -0.02182237 0.057925016 0.12846462 -0.07396361 0.09919701 0.041356124
-0.12578277 0.0066821584 0.016818978 0.14162284 0.07111224 -0.08673743 0.07048969 -0.0035102605
0.07957637 -0.09387476 0.11395927 -0.065110765 -0.004170848 -0.0014354547 -0.008458072 -0.094475135
00000000: 945d 92bd 397f 46bd cd61 0fbe 624b 1f3e
00000010: be8d 4f3c 891d 0fbd 23af 49bd aecf 493d
00000020: 3557 07bb f90b 113e d01d 803b 5ef1 c4bb
00000030: b6be dcbc eb9d 153d f19e 503d 1e7a 293c
00000040: 7f9b 233c 78ca 0c3d f906 8a3d ff00 1b3e
00000050: 5005 063d 9504 5c3d 6505 1abe be3a 2dbe
00000060: 45e5 0dbd 0a38 57bc cc2d a1bd a322 0c3e
00000070: 1727 c63c f5a4 ca3d 0ccc fd3d c63e d53d
00000080: 8870 a93d e1a7 323d 5af1 483e b0f3 7fbd
00000090: 10e6 e0bc 7a7e 1b3e 4264 19bd 0aaf 08bb
000000a0: a9b6 083e 5f25 633c 2b18 5e3d 1073 78bd
000000b0: 2448 86bc 46b9 c73d 974b 2a3d a974 62bc
000000c0: 60de 2dbd 82a9 a83d 303b 9abd 490f 133d
000000d0: d173 d63d bf29 99bd 2fbe 6abc 5ddc 11be
000000e0: 4ad1 333e ed5c 9e3c 8d27 80bd 2b69 b7bd
000000f0: 45f6 c53b 7b6b 8dbd 97eb aabd 8185 7dbc
00000100: 54c2 483d aaaa 07be 03bf d73c 4bf7 893d
00000110: 9a0d 2abd 0308 4f3e cbca 36bd 928d afbd
00000120: fa3e dd3d c5b7 22bd 0168 873d 62b8 c2bc
00000130: e1d3 a7bc 9046 133c ad58 063e b7c7 e83c
00000140: 8242 f1bc 2e5d dc3d 39ed 503d 4c9c c63d
00000150: a359 08be 27c7 b73d 05ef 2f3d c759 c4bc
00000160: d33b 2a3e 7f3b 88bd dcf8 aebd c4e8 aabd
00000170: b622 21bb 67ec 83bd 0ef7 d13b 4b8c 08be
00000180: 509d 11bc 9c37 24bc 5b31 d8bc 0b8c 9c3d
00000190: ada4 4abc 3613 c9bd bc98 883d 680e 0d3e
000001a0: 7c92 c0bc 1607 e0bc 59d9 7e3c 0023 723d
000001b0: 252d 12be 843b 883d d6b6 b8bd f64f c8bd
000001c0: 3724 cb3d 463d 0eba 77fd 1b3d ac3d cd3d
000001d0: 8b02 0bbd 8f5f 8f3c 338e 0dbd 4795 4f3d
000001e0: 7884 babd 97a0 da3d c8f3 b43d 1eb3 60bd
000001f0: fa91 2b3c 64f6 d73d 5aa5 a83d a097 ccbd
00000200: b836 a03d 93d7 b5bd 3cc7 243b 893e 50bd
00000210: 9bf5 e1bc f344 72bd f5ec b73c fd6d 66bc
00000220: 70de 37bc 8468 7dbc 3158 b4bd 296a b43d
00000230: 1345 10bd e535 b13b 1724 b7bc 7103 ad3d
00000240: 9b1f 12be 5286 1c3c 0954 44bd f71d 743d
00000250: 4e3d 2ebc 06fb 223d d613 f03d d086 debd
00000260: 91fc a03d 9477 943c b351 c4bd ca83 00bb
00000270: a865 a4bd bfce 00bd fee5 90bd 02cb 223e
00000280: d616 833d cff7 593c b024 7a3d 6eb8 743d
00000290: 85d5 f13d 76dd b13c b30a f9ba b091 adbd
000002a0: 44e7 18be f0fc bdbc 8399 453d 7000 31bc
000002b0: 4d0b 6c3c 6297 903b 73db fb3d 09b8 ccbd
000002c0: 17e0 ab3d 948b 95bd c936 7ebd efbe cabd
000002d0: db6d 8cbd 5bce 993d e3f8 06bd 34f0 f8bd
000002e0: 21ca 89bb 738a 58bd ae8b 913d d8bd d8bd
000002f0: dc0c 4c3d 6197 09bd 4455 be3c 96a2 f2bc
00000300: 3195 8a3d b83b c53b 9865 093d 6274 1abe
00000310: dcdc a13d ef28 443c 03cc 8d3c 166e 683d
00000320: 236d b4bd 3afb 703d 72c9 8f3d fd7a 89bd
00000330: b314 84bd 21e0 71bd c9b7 5c3d 1710 d9bc
00000340: d0ec 453d 818e bb3c 18ef 003e 76e2 4bbd
00000350: 27f9 02be e67d 513d 9442 c23d 628b 663d
00000360: d34b c13d f45c e13d 6134 d6bb ec36 c33c
00000370: f21f f1bc 1473 18be 4a1a 0c3d 547e 9d3a
00000380: e366 8cbd 90d0 263d 2f63 2c3d e56a c03d
00000390: 348b 3b3d 794d 9dbd 1de3 60bd 04d2 6b3d
000003a0: 860d 2cbd 6983 f03c d4c4 b2bc c842 6d3d
000003b0: 3b8c 033e 3c7a 97bd cd27 cb3d 0a65 293d
000003c0: 33cd 00be 02f6 da3b f4c7 893c 9405 113e
000003d0: 4ba3 913d 65a3 b1bd e65c 903d 660c 66bb
000003e0: f0f8 a23d 6941 c0bd 7a63 e93d cb58 85bd
000003f0: 9cab 88bb de25 bcba ba93 0abc 2e7c c1bd

fc2.bias f4 [84]
-0.151862 -0.026620332 -0.041765284 -0.0024250972 -0.06978003 -0.13255292 -0.016346013 0.09185567
-0.13999774 -0.08523559 -0.05078879 -0.08605104 -0.06841006 0.028381292 0.031414855 0.04963203
-0.013810322 0.46303213 0.23474966 -0.033862002 -0.09876276 0.025565399 0.0013877505 -0.15179183
-0.030036708 0.10877217 0.19524589 0.037980445 -0.025098285 0.1688981 0.1677979 0.06924754
0.11833962 -0.10742176 0.104611635 -0.10426959 0.02139717 -0.08195322 -0.0119359 0.02219552
-0.068861686 -0.014466004 0.23870501 0.030724749 -0.082134984 -0.062205326 -0.02437166 0.15357749
-0.08611914 0.18259956 -0.11731358 -0.050760087 0.030090071 0.015730433 0.22151177 -0.07398277
0.05354084 -0.00081798754 -0.07612365 -0.015815673 0.108714156 -0.048398364 -0.04260201 0.0091164345
0.050936073 -0.061252736 0.22738647 -0.010729978 -0.09232808 0.18620072 0.07928857 0.025782801
-0.08007112 0.0034319435 0.10487463 0.044186875 -0.07595281 0.06836608 -0.042992968 -0.069402635
0.1229428 -0.06628053 -0.08659084 0.07443076
00000000: b681 1bbe e212 dabc 1312 2bbd 61ee 1ebb
00000010: d5e8 8ebd f4bb 07be 13e8 85bc d31e bc3d
00000020: 915b 0fbe ff8f aebd e807 50bd 873b b0bd
00000030: 931a 8cbd e27f e83c ddac 003d f54a 4b3d
00000040: b044 62bc 8c12 ed3e 3762 703e e2b2 0abd
00000050: 2144 cabd 876e d13c 2ee5 b53a 516f 1bbe
00000060: 8b0f f6bc f2c3 de3d 8aee 473e 6291 1b3d
00000070: eb9a cdbc a0f3 2c3e 36d3 2b3e a7d1 8d3d
00000080: 0b5c f23d f1ff dbbd a03e d63d 4b8b d5bd
00000090: 1e49 af3c 17d7 a7bd cb8e 43bc 61d3 b53c
000000a0: 5b07 8dbd d202 6dbc 166f 743e 78b2 fb3c
000000b0: 6336 a8bd 03cb 7ebd 13a7 c7bc 6b43 1d3e
000000c0: 3b5f b0bd 61fb 3a3e 1a42 f0bd cfe9 4fbd
000000d0: 747f f63c 1cdd 803c fbd3 623e 4784 97bd
000000e0: a44d 5b3d 376e 56ba b7e6 9bbd df8f 81bc
000000f0: 87a5 de3d 5d3d 46bd 727f 2ebd 195d 153c
00000100: 58a2 503d 26e4 7abd 00d8 683e cacc 2fbc
00000110: 8116 bdbd 67ab 3e3e 0c62 a23d 7436 d33c
00000120: 54fc a3bd 75ea 603b 83c8 d63d 4cfd 343d
00000130: 268d 9bbd 8403 8c3d 6519 30bd f822 8ebd
00000140: 6fc9 fb3d 16be 87bd 8a56 b1bd 286f 983d

fc3.weight f4 [10, 84]
0.2901568 -0.04840423 -0.15491596 -0.018305471 0.25256482 0.11351158 0.07036149 0.22519465
0.09381763 0.19879377 0.3269266 -0.14715512 0.06054581 0.30971918 -0.031846162 -0.14428581
0.065298796 -0.29545683 0.0016887053 -0.09599823 0.09980786 -0.13560052 0.18171169 0.09070946
0.33934805 0.12822491 -0.17487104 0.02126736 -0.117622994 0.10099627 -0.16562946 -0.032563638
0.059971604 0.057667255 0.032803625 -0.02155132 0.081754476 -0.030951407 -0.24559456 -0.05700221
-0.046412613 -0.21512371 0.1959659 -0.18092693 0.07149248 -0.24100384 -0.1815549 0.21893978
-0.050745808 0.37562963 0.0033992047 -0.2174434 0.3788947 0.13411118 -0.18725792 -0.002500286
0.04663689 0.11587555 -0.23204045 0.11593145 -0.05755318 -0.004922659 -0.085364625 0.014937647
0.036786254 0.23468958 -0.1366896 -0.07132936 0.056024294 -0.12600634 -0.0081537245 -0.12825593
0.07333251 -0.0017697157 0.073221594 0.24169227 0.19218129 -0.11171761 0.012303625 -0.099172264
-0.30918458 0.11029508 -0.15625003 0.13973965 0.19013578 0.0025524886 0.17446277 0.07007542
0.007161681 -0.0575225 -0.062307175 0.09226688 0.053445302 0.05053948 0.18098561 0.04004917
-0.024877902 -0.12756494 0.06726413 -0.18891262 -0.06239874 -0.2250885 -0.32025746 0.16788512
-0.025751466 -0.10796694 -0.15016057 0.047037598 -0.1805033 -0.15162279 -0.09085434 -0.26239553
0.10480364 -0.25412455 -0.083011284 -0.24742256 0.01609174 0.14039277 -0.4025507 0.040543716
0.13852444 -0.11662564 0.11918512 -0.18594535 0.06779543 -0.13909873 -0.3318855 -0.032707643
-0.06445677 0.27493587 0.18350753 -0.20235622 0.068887554 0.045359142 0.27337903 0.30189008
-0.07454214 0.27771944 -0.116846144 0.100499235 -0.069987565 -0.08012194 0.08954828 -0.101240896
0.1901688 0.08598385 0.07551334 -0.17164664 0.105678566 -0.0077430857 -0.036848933 0.16336784
-0.05579411 -0.35612762 -0.20717613 0.11279941 0.062523715 0.23340839 0.12239922 -0.14671671
0.06271739 -0.143461 0.015198834 -0.07565289 0.27229398 0.26834336 -0.20361449 0.2016204
0.23258238 -0.2883863 -0.05059881 -0.24768956 -0.022703007 -0.031877223 -0.010956966 -0.001264249
0.03628126 -0.122089334 0.08265641 -0.040161554 -0.03102345 -0.026704768 0.032850713 0.23746519
-0.09819678 0.09666843 0.11796531 -0.09897451 -0.124712154 0.057825368 0.22994488 -0.24865317
0.22544806 -0.19742225 0.11188162 0.3660612 0.084771015 0.2833433 -0.019429898 -0.039886568
-0.010784639 0.040580284 0.060536057 -0.29570702 0.1392031 0.14904144 -0.20580174 0.03238113
0.011128777 0.11308192 0.21553059 -0.039643288 0.0061279237 -0.05060285 0.0720252 0.22135727
0.026934654 -0.1015386 -0.0068961172 0.0067070904 0.3143608 -0.056266908 0.34413373 0.19457789
-0.15070267 -0.042423952 0.114811406 -0.20635244 -0.24209009 0.053668387 -0.20148419 0.30838266
0.014187588 0.0039088195 0.09686543 -0.17078419 0.13411799 -0.026573475 -0.012780872 0.13130488
0.268332 -0.100126155 0.27781993 -0.06573032 0.0009246731 -0.1375039 -0.08150639 0.02336885
0.18488567 -0.17779866 -0.12672862 -0.1620968 -0.16126804 0.018107763 -0.17257549 -0.048469473
00000000: 6f8f 943e 8443 46bd 4aa2 1ebe 5bf5 95bc
00000010: 2d50 813e c278 e83d af19 903d 6d99 663e
00000020: 7523 c03d 9890 4b3e ec62 a73e d5af 16be
00000030: e2fe 773d 8393 9e3e 1f71 02bd a9bf 13be
00000040: 60bb 853d 1e46 97be 8c57 dd3a b89a c4bd
00000050: 1068 cc3d ddda 0abe a112 3a3e e2c5 b93d
00000060: 07bf ad3e 644d 033e 6511 33be e338 ae3c
00000070: 53e4 f0bd 22d7 ce3d c59a 29be 7361 05bd
00000080: c9a4 753d 8034 6c3d 185d 063d 658c b0bc
00000090: e46e a73d ce8d fdbc 247d 7bbe 267b 69bd
000000a0: 271b 3ebd 6449 5cbe 49ab 483e e944 39be
000000b0: a66a 923d b6c9 76be 87e9 39be c031 603e
000000c0: d6da 4fbd 8752 c03e 31c5 5e3b 7ca9 5ebe
000000d0: 7cfe c13e 7154 093e 8ac0 3fbe d7db 23bb
000000e0: 5306 3f3d 2950 ed3d 039c 6dbe 786d ed3d
000000f0: e2bc 6bbd 424e a1bb a6d3 aebd 08bd 743c
00000100: 2fad 163d 7752 703e 5cf8 0bbe 2115 92bd
00000110: bb79 653d ce07 01be 3397 05bc 8655 03be
00000120: 5b2f 963d cef5 e7ba 34f5 953d 2e7e 773e
00000130: 2ccb 443e 34cc e4bd 2595 493c d41a cbbd
00000140: 714d 9ebe 63e2 e13d 0200 20be e917 0f3e
00000150: f4b2 423e a747 273b 5ea6 323e b483 8f3d
00000160: 89ac ea3b b79c 6bbd cf35 7fbd 6bf6 bc3d
00000170: 76e9 5a3d 7c02 4f3d 4b54 393e 990a 243d
00000180: becc cbbc 62a0 02be c7c1 893d 4f72 41be
00000190: d295 7fbd 9a7d 66be c9f8 a3be 14ea 2b3e
000001a0: bdf4 d2bc c51d ddbd b1c3 19be 7faa 403d
000001b0: dbd5 38be 0143 1bbe d711 babd b558 86be
000001c0: 4aa3 d63d 9d1c 82be d201 aabd 575c 7dbe
000001d0: d3d2 833c 1fc3 0f3e 201b cebe 2b11 263d
000001e0: 5ad9 0d3e 6cd9 eebd 5417 f43d 7568 3ebe
000001f0: 55d8 8a3d e66f 0ebe e5ec a9be 73f8 05bd
00000200: e901 84bd 65c4 8c3e 66e9 3b3e 7836 4fbe
00000210: eb14 8d3d 82ca 393d 56f8 8b3e 5691 9a3e
00000220: 8da9 98bd 3e31 8e3e 084d efbd 8bd2 cd3d
00000230: a455 8fbd f916 a4bd 1765 b73d 6357 cfbd
00000240: 9cbb 423e 4d18 b03d bda6 9a3d 23c4 2fbe
00000250: 016e d83d b6b9 fdbb e8ee 16bd e649 273e
00000260: 5d88 64bd 5c56 b6be fb25 54be 6103 e73d
00000270: 6f0c 803d 9c02 6f3e 71ac fa3d e83c 16be
00000280: fa71 803d 71e7 12be 8804 793c e7ef 9abd
00000290: 1e6a 8b3e 4d64 893e 5180 50be 9475 4e3e
000002a0: 132a 6e3e 5ea7 93be b340 4fbd 55a2 7dbe
000002b0: a8fb b9bc b191 02bd d984 33bc 28b5 a5ba
000002c0: a99b 143d f909 fabd c447 a93d 7180 24bd
000002d0: e424 febc f5c3 dabc 788e 063d 132a 733e
000002e0: 651b c9bd 19fa c53d cc97 f13d 26b3 cabd
000002f0: 1669 ffbd 4bda 6c3d ac76 6b3e f09e 7ebe
00000300: dbdb 663e 0f29 4abe 3122 e53d 606c bb3e
00000310: 6d9c ad3d 5f12 913e 732b 9fbc 1960 23bd
00000320: 0eb2 30bc 8337 263d a8f4 773d e966 97be
00000330: 428b 0e3e 529e 183e b1bd 52be 13a2 043d
00000340: 7955 363c 7e97 e73d 0db4 5c3e 0061 22bd
00000350: c0cc c83b ef44 4fbd f381 933d 7bab 623e
00000360: 10a6 dc3c 78f3 cfbd d3f8 e1bb 27c7 db3b
00000370: e6f3 a03e 2178 66bd 4c32 b03e 6d3f 473e
00000380: cd51 1abe bdc4 2dbd 3e22 eb3d 0e4e 53be
00000390: 77e6 77be 62d3 5b3d df51 4ebe 55e4 9d3e
000003a0: 0f73 683c 8e15 803b 6261 c63d 0de2 2ebe
000003b0: 3a56 093e 9eb0 d9bc dd66 51bc c974 063e
000003c0: d062 893e f10e cdbd 6a3e 8e3e 9e9d 86bd
000003d0: c365 723a d3cd 0cbe d2ec a6bd 0870 bf3c
000003e0: ab52 3d3e da10 36be 26c5 01be b4fc 25be
000003f0: 7323 25be bb56 943c a1b7 30be ed87 46bd

fc3.bias f4 [10]
-0.4275665 -0.31068027 0.17234303 0.28406337 0.5239043 -0.012845661 0.27999687 -0.13627926
0.17982508 -0.34806782
00000000: ffe9 dabe 7c11 9fbe b17a 303e c170 913e
00000010: 981e 063f 9b76 52bc c05b 8f3e ca8c 0bbe
00000020: 1124 383e f235 b2be
